Model: "sequential"
_________________________________________________________________
Layer (type)                 Output Shape              Param #   
=================================================================
lstm (LSTM)                  (None, 69, 70)            20720     
_________________________________________________________________
lstm_1 (LSTM)                (None, 69, 40)            17760     
_________________________________________________________________
lstm_2 (LSTM)                (None, 69, 25)            6600      
_________________________________________________________________
lstm_3 (LSTM)                (None, 15)                2460      
_________________________________________________________________
dense (Dense)                (None, 3)                 48        
=================================================================
Total params: 47,588
Trainable params: 47,588
Non-trainable params: 0
_________________________________________________________________


-----------------------------------------------------------------------------------

Patience: 15
Epochs: 109
Execution time: 5877.04
